data.pth (torch, 34751 bytes, 6 tensors)

l1.weight f4 [8, 488]
0	0xbd06be40	-0.03289628
1	0xbeb5ed6b	-0.35532698
2	0x3e85f172	0.2616077
3	0x3f030517	0.5117964
4	0xbe44124d	-0.19147606
5	0xbe473333	-0.19453125
6	0xbdd2991e	-0.10283111
7	0xbf0c5443	-0.54816073
8	0x4033d317	2.809759
9	0x4002ba92	2.0426373
10	0xbf88f7b9	-1.0700599
11	0x404a3453	3.1594436
12	0x3f1709bd	0.58999234
13	0xbf8f858d	-1.1212631
14	0xc03e106b	-2.969752
15	0x3fb10f2c	1.3832755
16	0x3ef9b3c5	0.48769966
17	0x409cd4d8	4.900982
18	0x408d07c1	4.4071965
19	0x409aba84	4.835268
20	0x4085a95e	4.1769247
21	0xbf84b4be	-1.0367658
22	0x3fde8630	1.7384701
23	0x3f766515	0.9624799
24	0x4015f52e	2.3430896
25	0xbf907c48	-1.1287928
26	0xbe063de6	-0.1310955
27	0xbf9101a5	-1.1328627
28	0xbecd6bc3	-0.40121278
29	0x3d04446f	0.032291826
30	0x3ebf1474	0.37320292
31	0xbf90e912	-1.1321127
32	0xbf8ff92f	-1.124792
33	0xbf8f84d7	-1.1212415
34	0x3ec81b21	0.39083198
35	0xbd85f485	-0.06540779
36	0xbf92b9b3	-1.1462921
37	0xbf92a697	-1.1457089
38	0x406cf03f	3.7021635
39	0xbf3da2a6	-0.74076307
40	0x409ba95b	4.8644233
41	0xbf4d819e	-0.80275905
42	0xbf9137ed	-1.1345192
43	0x40173e64	2.363183
44	0x40934858	4.602581
45	0x40029f7b	2.040984
46	0xbf914cc6	-1.1351554
47	0x3f993aa6	1.1971023
48	0x40872ea3	4.224443
49	0x40758aa6	3.8365874
50	0xbcadca4b	-0.021214625
51	0x3fc643b5	1.5489413
52	0x3fc18828	1.5119677
53	0x406582b1	3.5861018
54	0x3f88a362	1.067486
55	0x3f5b8119	0.8574386
56	0x404babd4	3.1823626
57	0x4080b78e	4.0224066
58	0x407ae9be	3.9205165
59	0x40a9b7d8	5.303692
60	0x404a2bc7	3.158922
61	0x406d9912	3.7124677
62	0x40606450	3.5061226
63	0x40a0845f	5.0161586
64	0x405d2087	3.4551103
65	0x3f23e0ff	0.6401519
66	0xbf9c6b36	-1.2220218
67	0x401f3cb3	2.4880798
68	0x3ebf1d08	0.37326837
69	0x3e59acde	0.2125735
70	0x3eca7d63	0.39548787
71	0x40012d6b	2.018397
72	0xbf13b0e2	-0.57691777
73	0x40308cad	2.7585862
74	0x3f058a11	0.521638
75	0xbf0caa06	-0.54946935
76	0xbea25511	-0.31705526
77	0x3fa0c920	1.2561378
78	0x3ea5b8bd	0.32367507
79	0x3f7ccea9	0.9875284
80	0x3f0358f0	0.5130758
81	0xbf1d511c	-0.6145189
82	0x3f9fc7cc	1.2482848
83	0x4050bd44	3.2615519
84	0x40087aad	2.1324875
85	0x40220c2d	2.5319932
86	0x3d5937ae	0.053031616
87	0x4025a19c	2.5879889
88	0x3dcd9f48	0.10040146
89	0x3fc0580d	1.5026871
90	0x4007d0b2	2.1221128
91	0x3f8d98ac	1.1062217
92	0x3f97a80d	1.184816
93	0xbd884ec5	-0.06655649
94	0x407f87c1	3.9926608
95	0x3eb0bb8a	0.3451808
96	0xbf803786	-1.0016944
97	0x404c04ad	3.1877854
98	0x3f18b4c7	0.59650844
99	0xbd3702cc	-0.0446804
100	0x4028ffeb	2.64062
101	0x403978f8	2.8980083
102	0x40a61476	5.1899977
103	0x40ae26c6	5.442233
104	0x3fe3f20c	1.7808242
105	0xbf817612	-1.0114157
106	0xbe3499c4	-0.17636782
107	0x3f0e21d1	0.5552035
108	0x4013f24d	2.3116639
109	0x3e43c91b	0.19119684
110	0x400a2571	2.1585352
111	0x3f8d467f	1.1037139
112	0x3eac6c13	0.33676204
113	0x4008c90b	2.1372707
114	0x4066df53	3.6073806
115	0xbf45fe49	-0.77341133
116	0x3f0c4b54	0.5480244
117	0x408961ec	4.2932034
118	0x3f8f01d3	1.1172432
119	0x3f8105bf	1.0079879
120	0x3f5678dd	0.8377817
121	0xc080966c	-4.018362
122	0xbf8f50f0	-1.1196575
123	0x3f4cec45	0.8004802
124	0x3ffeff51	1.9921666
125	0x4061d2cf	3.5284917
126	0x406cb231	3.698376
127	0x3fa317b7	1.2741612
128	0x3eb54400	0.35403442
129	0x3f0d684d	0.55237275
130	0xbfa8d669	-1.3190433
131	0x3f861d7b	1.0477747
132	0x3fd17bef	1.6365947
133	0x3fc14721	1.5099832
134	0x3f1aa37d	0.60405713
135	0x4006de39	2.1073134
136	0x3d16398d	0.03667598
137	0x3f501831	0.81286913
138	0x3f1d4ee2	0.6144849
139	0x3f76e60e	0.96444786
140	0x40874708	4.227421
141	0xc0645763	-3.5678337
142	0x3f97d731	1.1862546
143	0xbfc328c1	-1.5246812
144	0xbfc844e1	-1.564602
145	0x3ef24845	0.47320762
146	0xbcddb149	-0.027062075
147	0x3de7fc2a	0.11327393
148	0x4009bb6b	2.152064
149	0xbec543f4	-0.38528407
150	0x3f9159b6	1.1355503
151	0xbf5c49ad	-0.8604992
152	0x3f05c762	0.5225736
153	0x4002767d	2.038482
154	0x3efa77b7	0.4891946
155	0x3feec729	1.8654529
156	0x3fd8960b	1.692079
157	0x3f825704	1.0182805
158	0xbf04c3d1	-0.5186129
159	0x3f984540	1.1896133
160	0x3fe6c543	1.802895
161	0xbe5f06cf	-0.21779941
162	0x3fa9a168	1.3252382
163	0x3f02679b	0.5093934
164	0x3f0af843	0.5428507
165	0x3ed3f5ed	0.41398564
166	0x3fd3ac7c	1.6537013
167	0x3ef12085	0.47095123
168	0x3fbc4043	1.4707111
169	0x4056af87	3.3544633
170	0x4091a2b9	4.5511136
171	0x40903602	4.5065928
172	0x403d1db4	2.954938
173	0x3ddf238c	0.10895452
174	0xbe1239a1	-0.14279796
175	0xbf472d3e	-0.7780341
176	0xbe27314f	-0.16327403
177	0x3f8129a1	1.0090829
178	0x3ee9a393	0.4563261
179	0xbe984511	-0.29740193
180	0xbff46ec6	-1.9096305
181	0x3f6a6340	0.91557693
182	0x3ef5c33e	0.4800052
183	0xc07fc9f9	-3.9967024
184	0xc0375276	-2.864408
185	0xbf1c0ee1	-0.60960203
186	0x408e677c	4.4501324
187	0x3fe8bd97	1.8182858
188	0x3f86942e	1.0513971
189	0x3ff88c61	1.941784
190	0x3fed1965	1.8523375
191	0x403a635f	2.9123151
192	0xbff5b33e	-1.9195325
193	0xbe4f4f27	-0.20245038
194	0x3fc0f185	1.5073706
195	0x3f8140df	1.0097922
196	0xc009a54c	-2.150714
197	0xbf8b536e	-1.0884836
198	0x3fb992e7	1.4497956
199	0x403fa241	2.9942782
200	0x403dca5d	2.9654763
201	0x3fa11fc9	1.2587825
202	0x3fd6e003	1.6787113
203	0xc02219f7	-2.5328348
204	0x3fb852d4	1.4400277
205	0x40535b5d	3.3024514
206	0x40a53a8e	5.163398
207	0xbf9988a2	-1.1994822
208	0x3f00983e	0.50232303
209	0x3fe344d6	1.7755382
210	0xbee94111	-0.45557454
211	0xbdc46d20	-0.095911264
212	0x4086e519	4.215466
213	0x3f008b84	0.50212884
214	0xbf2a241d	-0.66461354
215	0x4026b713	2.604924
216	0xbe0d39e9	-0.13791622
217	0x3eb1cad9	0.34725073
218	0x3ee77f52	0.45214325
219	0x3f1dfb99	0.6171203
220	0x3e965e5a	0.2936886
221	0xbf50d68d	-0.8157738
222	0x400375e4	2.0540705
223	0xbf7cdb65	-0.9877227
224	0x3e5eabe1	0.21745254
225	0x3e6d9c7e	0.23204228
226	0x408c225c	4.3791943
227	0x3e41650b	0.18886201
228	0x3f8185d5	1.0118967
229	0x407b4016	3.9257865
230	0x40150e4d	2.3289979
231	0xc03c1e9e	-2.9393687
232	0x3faefa75	1.3670183
233	0x3eeaf262	0.45888048
234	0x3fe98536	1.8243778
235	0x3f7a6c05	0.97821075
236	0xbe028699	-0.12746657
237	0x3faa7ff3	1.3320297
238	0x400cc158	2.1993008
239	0x402b03ca	2.6721063
240	0x4007c540	2.1214142
241	0xbf660cf8	-0.8986354
242	0xbf7e0f8d	-0.9924248
243	0x3fc9b979	1.5759727
244	0x3e1d4ba4	0.15360886
245	0x3e9764c3	0.29569063
246	0xbf8c93ca	-1.0982602
247	0xbfcc1b85	-1.5945898
248	0xc004836b	-2.070521
249	0x3f454ec7	0.7707333
250	0xbffb3b6f	-1.9627513
251	0xc0028192	-2.0391583
252	0x3ec33fc3	0.38134584
253	0x3f3cb143	0.7370798
254	0x3ef220d8	0.47290683
255	0x3ea8519d	0.32874766

l1.bias f4 [8]
0	0x3f3b4e7c	0.7316663
1	0x3f3343de	0.7002543
2	0x3fee7e23	1.8632244
3	0x3f4a4d19	0.7902389
4	0x3f8c1b1a	1.0945771
5	0x3f43b41d	0.76446706
6	0x3f2a7b5a	0.6659447
7	0x3fee7d4f	1.8631991

l2.weight f4 [8, 8]
0	0x3e986b8b	0.2976955
1	0xbd1d675b	-0.038428646
2	0x403d647d	2.9592583
3	0x403c3486	2.9407058
4	0x3fbfd0db	1.4985613
5	0xbf2b6b90	-0.66961
6	0xbfe61014	-1.7973657
7	0xbfd76a72	-1.682936
8	0xbd59bd5b	-0.0531591
9	0x402cc4a9	2.6995032
10	0x40732b2e	3.7995105
11	0xc054c432	-3.3244748
12	0xc0474201	-3.1134036
13	0x403ae269	2.920069
14	0xbef17b7e	-0.4716453
15	0x40559444	3.3371744
16	0xc03270b3	-2.7881286
17	0x402e116e	2.7198138
18	0xbf92482b	-1.1428274
19	0x405c1ec7	3.4393785
20	0x402e852a	2.7268777
21	0x406d0624	3.7034998
22	0xbe5f6187	-0.21814547
23	0x40074c41	2.1140292
24	0x3ddaac18	0.106773555
25	0xbcf08590	-0.029360563
26	0xbd671c28	-0.056423336
27	0xbe35e178	-0.17761791
28	0xbe986805	-0.2976686
29	0xbe5fbfb1	-0.21850468
30	0xbeb4a857	-0.35284683
31	0xbea1a1fa	-0.3156889
32	0x4015048c	2.3284025
33	0x4017c2eb	2.3712718
34	0x3f1e1622	0.6175252
35	0x3ff536a6	1.9157302
36	0x3f9d9a57	1.2312726
37	0xc024bfb5	-2.5742009
38	0xc053677f	-3.303192
39	0x3fb061a2	1.3779795
40	0x4099f0fc	4.810667
41	0xc0100e7c	-2.250884
42	0xc00b4c04	-2.1765146
43	0x403fd72e	2.9975085
44	0x3f84d055	1.0376078
45	0x3ee6f5b9	0.45109347
46	0x4084582b	4.1357627
47	0x3e8b62d8	0.2722385
48	0x3d5b8df2	0.053602166
49	0xb9a51ddf	-0.00031493508
50	0x3f0de5af	0.55428594
51	0x3d957f8d	0.07299719
52	0xbf3cf06f	-0.7380437
53	0x3ef54021	0.4790049
54	0x3e39cde3	0.18144946
55	0xbf07f1a9	-0.5310312
56	0xbfa46c66	-1.284558
57	0xc055efdd	-3.342765
58	0x40350da2	2.828957
59	0xc02d28cc	-2.705615
60	0x4088e670	4.2781296
61	0xc00363e9	-2.052973
62	0x3f66466e	0.8995122
63	0x3ffa0102	1.9531558

l2.bias f4 [8]
0	0x3e1e25f3	0.15444164
1	0x3fe40c13	1.7816185
2	0xbf4b1e69	-0.7934328
3	0xbd454288	-0.048159152
4	0xbe8672bf	-0.2625942
5	0x3e65e40a	0.22450271
6	0xbe50b0ed	-0.20379992
7	0x3f89d8ce	1.0769289

l3.weight f4 [177, 8]
0	0xc097bd36	-4.741847
1	0x3ee5155a	0.44742852
2	0x3f361cdf	0.71137804
3	0x3dc791a4	0.097445756
4	0xbff34513	-1.9005455
5	0xc119d88e	-9.61537
6	0xc097e2b0	-4.746422
7	0xbf5ecb88	-0.87029314
8	0x3fd333d5	1.6500193
9	0xc082512b	-4.072408
10	0xbf23a3ab	-0.6392161
11	0x3b5cd100	0.003369391
12	0x3f2abf14	0.6669781
13	0xc09ac3af	-4.836387
14	0xc074cc9e	-3.8249888
15	0xbfaf4cdc	-1.3695331
16	0xc0a444cf	-5.1333995
17	0xbe9f38cf	-0.3109803
18	0x3f63d00b	0.88989323
19	0x3e6a4e16	0.2288135
20	0xc120dc75	-10.0538225
21	0xbf1e288a	-0.6178061
22	0xc08b468e	-4.3523626
23	0xbeb1cb97	-0.3472564
24	0xc1151829	-9.318398
25	0xbb8ee2c1	-0.0043605273
26	0xc07c9c44	-3.9470377
27	0x3d2f5480	0.042805195
28	0xc0365956	-2.8492026
29	0x3e5902bb	0.21192448
30	0xbece3ec3	-0.40282258
31	0xbfeec544	-1.8653951
32	0xbf17e963	-0.59340495
33	0xc0187198	-2.3819332
34	0x3f451b1b	0.76994485
35	0xbe46e0ac	-0.19421643
36	0xbf9a1fa8	-1.2040911
37	0xbf5c81d4	-0.861356
38	0xc0974ff4	-4.72851
39	0xbff0de8e	-1.8817918
40	0x3eb555b1	0.3541694
41	0xc01a88ab	-2.4145916
42	0xbfac838b	-1.3477644
43	0x3d86546c	0.06559071
44	0x3f5e39da	0.86807024
45	0xbf42fb5e	-0.76164806
46	0xc0d69b0d	-6.706427
47	0xbe96c7c2	-0.29449278
48	0xbf81f179	-1.0151817
49	0xbed37a7d	-0.4130439
50	0x3f14571d	0.57945424
51	0xbe2c9f4a	-0.16857639
52	0xc0362384	-2.8459177
53	0xbf240664	-0.6407225
54	0xbfc6a61d	-1.5519444
55	0xbf65f025	-0.89819556
56	0xbfde4116	-1.7363613
57	0xbffe59e0	-1.9871178
58	0x3fa9b3d2	1.3258002
59	0xbe1f486b	-0.15554969
60	0xbff0d506	-1.881501
61	0xbf67bd2d	-0.90523034
62	0xc074d3ba	-3.8254228
63	0xc08e3b3a	-4.44473
64	0xbfece08f	-1.850603
65	0xbef35200	-0.475235
66	0x3f5617e9	0.83630234
67	0x3e437016	0.19085726
68	0xbfcf55ae	-1.6198022
69	0xbf40f50c	-0.7537391
70	0xc0004062	-2.0039296
71	0xc0857062	-4.1699686
72	0xc01c68a3	-2.4438865
73	0xc08f7304	-4.48279
74	0x3df6b5f3	0.12046423
75	0xbe9629dc	-0.2932881
76	0x3e2675dd	0.16255899
77	0x3db8ce09	0.09023673
78	0xc09f9fa2	-4.9882364
79	0xbfbd4ca4	-1.4789014
80	0xc0a4a341	-5.1449285
81	0xbfd76ed9	-1.6830703
82	0xbe4b4525	-0.19850595
83	0x3da952a8	0.082677186
84	0x3f8afeb3	1.0858978
85	0xbe15f628	-0.14644682
86	0xc09d5daa	-4.9176836
87	0xc0eac0d6	-7.3360395
88	0xbf246b5e	-0.6422633
89	0xc0cf20b8	-6.472744
90	0xbf5d6686	-0.86484563
91	0x3db07254	0.08615556
92	0xc00d8448	-2.2111988
93	0x3efe457c	0.49662387
94	0xbf8e7b4d	-1.1131378
95	0xc06457c8	-3.5678577
96	0xc0a49a1a	-5.143811
97	0xbf90afad	-1.1303612
98	0x3f37aabc	0.71744895
99	0x3d1ccb68	0.03827992
100	0x3d6285ae	0.055303268
101	0xbf01ac64	-0.5065367
102	0xc00d702d	-2.2099717
103	0xc0d25809	-6.5732465
104	0xc0f53918	-7.6632195
105	0xc0185a49	-2.3805106
106	0x3f804d93	1.0023674
107	0xbe93f078	-0.288944
108	0xc002c4b5	-2.043256
109	0xbe035bb2	-0.12827948
110	0xc0145e93	-2.3182724
111	0xc00334d2	-2.050099
112	0xbfa56d73	-1.2924026
113	0xc0a9adba	-5.302457
114	0x3e4fc2c3	0.2028914
115	0xbe38cf93	-0.18047933
116	0xbf7a9f44	-0.9789927
117	0x3d94fc01	0.072746284
118	0x3ec57b17	0.38570473
119	0xc102a48f	-8.165175
120	0xc0b27d22	-5.577775
121	0xbfce07d6	-1.6096141
122	0x3d84327f	0.06454944
123	0x3d9d0830	0.07667577
124	0x3ecec7c6	0.4038679
125	0xbe59d5cb	-0.21272962
126	0xc0467ecc	-3.101489
127	0xbfe8efa4	-1.8198133
128	0xc02b1dbe	-2.6736903
129	0xc027d794	-2.6225328
130	0x3f337141	0.70094687
131	0x3eb25cbd	0.3483638
132	0xbfabc62a	-1.341985
133	0xbd368d44	-0.044568315
134	0xc008ecf5	-2.1394627
135	0xc097245d	-4.723189
136	0xbfdd819f	-1.7305182
137	0xbfea3705	-1.8298041
138	0x3e14e9a4	0.14542252
139	0x3eacb46f	0.3373141
140	0x3f3b9457	0.73273224
141	0xbec4e283	-0.38454065
142	0xc05e5f30	-3.4745598
143	0xc0b8d469	-5.775929
144	0x3e34ff0b	0.17675416
145	0xc0ad4836	-5.415065
146	0xbefec06d	-0.49756184
147	0xbe866298	-0.26247096
148	0x3f769666	0.9632324
149	0xbeb46794	-0.35235274
150	0xc0898dac	-4.298544
151	0xc0895c26	-4.2924986
152	0xbf93d8e8	-1.155057
153	0xbf8199b8	-1.0125036
154	0xbdaef6c8	-0.085431635
155	0x3d0df788	0.034659892
156	0xbf1a4542	-0.6026193
157	0xbe4ec352	-0.20191696
158	0xc0434808	-3.0512714
159	0xbfa736be	-1.3063581
160	0x3fb17c7d	1.3866116
161	0xbfea5e89	-1.83101
162	0xbfcf2579	-1.6183311
163	0x3db0b548	0.08628327
164	0x3f5fb51d	0.8738573
165	0xbf9d3086	-1.2280433
166	0xbfa8af9e	-1.3178594
167	0xc0060aed	-2.0944169
168	0x3f4e4b07	0.8058323
169	0xbf699031	-0.91235644
170	0xc01a55bb	-2.4114826
171	0xbe1631f2	-0.1466749
172	0xbf32ca3b	-0.6983983
173	0xbea7ae44	-0.32750142
174	0x3f9c45cf	1.2208804
175	0xc026c325	-2.6056607
176	0x3e6ca241	0.2310877
177	0xbfb5c0f0	-1.4199505
178	0x3e451f2c	0.19250172
179	0x3e7c4d92	0.24638966
180	0xbee01f0f	-0.43773696
181	0xbf3fffd9	-0.7499977
182	0xbf8234f0	-1.0172405
183	0xc091519c	-4.541212
184	0x3e392888	0.18081868
185	0xbe289216	-0.16461977
186	0xbed4a1d8	-0.41529727
187	0xbd667af0	-0.056269586
188	0xbede2025	-0.433839
189	0xbf49ae9d	-0.78782064
190	0x3e53de3d	0.20690246
191	0xc0c18763	-6.0477767
192	0x3de619e6	0.112354085
193	0xc0415ee3	-3.0214164
194	0xbfa5e4ad	-1.2960411
195	0x3d34b928	0.04412189
196	0x3f8ec53b	1.115394
197	0xbe340f25	-0.17583902
198	0xbfe6af4b	-1.8022245
199	0xbff691c1	-1.926323
200	0xbf9fd524	-1.248692
201	0xbfeaa8e9	-1.8332797
202	0xc0461066	-3.094751
203	0xbcfc6f60	-0.030814826
204	0x3fe006c3	1.7502064
205	0xbdceaa11	-0.10091031
206	0xc00a3b94	-2.1598864
207	0xc0cd5ee8	-6.417835
208	0xbfd33681	-1.6501008
209	0xbf55ab1d	-0.83464223
210	0xbebf0037	-0.3730485
211	0xbb6a0680	-0.003570944
212	0x3f1fc0d8	0.6240363
213	0xbe88a422	-0.26687723
214	0xbfa18f63	-1.2621883
215	0xc1208c85	-10.034307
216	0x3f398bf3	0.7247917
217	0xc0a909f0	-5.282463
218	0xc0beb399	-5.9594235
219	0x3e64dc5a	0.22349682
220	0x3ed30404	0.41214
221	0x3e611d3e	0.21983811
222	0x3f6e74f7	0.93147224
223	0xc0151872	-2.329617
224	0xc000ef6c	-2.0146132
225	0xbff6a70d	-1.926973
226	0xbed52fdb	-0.41638073
227	0x3d9f8e70	0.0779084
228	0x3e090dc1	0.13384153
229	0x3e3ea59e	0.18617865
230	0xc038a685	-2.8851635
231	0xc0217367	-2.5226686
232	0x3eb04302	0.34426123
233	0xc074b7ed	-3.823726
234	0xc009e455	-2.1545613
235	0x3e6d8b06	0.23197564
236	0x3e8f2091	0.27954534
237	0x3da44858	0.08021611
238	0x3fc15ccb	1.5106443
239	0xc0c3c83e	-6.1181936
240	0xc00ed6ef	-2.2318685
241	0xc00a060f	-2.1566198
242	0xbf7073ba	-0.93926585
243	0xbea63532	-0.3246246
244	0x3fafd6a8	1.3737383
245	0xbd9bd750	-0.07609427
246	0xc082c1df	-4.086166
247	0xc0246632	-2.5687375
248	0xbec79d0a	-0.38987
249	0xc011684b	-2.2719905
250	0xbe1e0d43	-0.15434746
251	0xbe9b7eec	-0.3037027
252	0xbe220573	-0.15822391
253	0xbe12329d	-0.1427712
254	0xbea9caf9	-0.33162668
255	0xc0ce3436	-6.4438734

l3.bias f4 [177]
0	0xbfa37d75	-1.2772661
1	0xc080570a	-4.010625
2	0xbfa2fc91	-1.2733327
3	0x3e09b10b	0.13446443
4	0xbf88dd85	-1.0692602
5	0xc07ec72d	-3.9809067
6	0xc053b2eb	-3.3077953
7	0xbf1785a2	-0.5918828
8	0xbf0d6632	-0.5523406
9	0xc012b42c	-2.2922468
10	0xbf940824	-1.1564984
11	0xbfb58727	-1.418187
12	0xbf256f94	-0.6462338
13	0xbfba736a	-1.4566472
14	0x3f536f11	0.8259135
15	0xbfe377b3	-1.7770904
16	0xbfa7d2e7	-1.3111237
17	0xbf2f72c7	-0.6853451
18	0xbf68fadd	-0.91007787
19	0xbffb1cad	-1.9618126
20	0xbf8be31b	-1.0928682
21	0xc08bda11	-4.3703694
22	0xbfbc6c4e	-1.4720552
23	0xc03548a2	-2.8325582
24	0xc031c867	-2.7778566
25	0xc02825b8	-2.6273022
26	0xc00dd39e	-2.216041
27	0xbf63e72c	-0.89024615
28	0xc07bdc21	-3.9353106
29	0xbe4f8372	-0.20264986
30	0xc02c3be3	-2.6911552
31	0xbfe640ba	-1.7988503
32	0xc03214ee	-2.7825274
33	0xbf41b608	-0.7566838
34	0xbfde133a	-1.7349617
35	0xbe15ae05	-0.14617164
36	0x3f132c31	0.57489306
37	0x3f6b4969	0.9190889
38	0x3e3e7d81	0.18602563
39	0xbfea13e5	-1.8287321
40	0x3e1eb222	0.1549764
41	0xbfe13a43	-1.7595905
42	0x3d9b8ca4	0.075951844
43	0xbf20b7ff	-0.62780756
44	0xbfaf5039	-1.3696357
45	0xbfc17df4	-1.5116563
46	0xbe6427ab	-0.22280757
47	0xbf8ecc97	-1.1156186
48	0xbd22356e	-0.039601736
49	0x3ea4542f	0.32095477
50	0x3f45e9ac	0.7730968
51	0x3f5f68d3	0.87269324
52	0xc00538b8	-2.0815868
53	0x3bee164d	0.007265842
54	0xbf58243f	-0.8443031
55	0xc078e9d8	-3.8892727
56	0xc0480e7b	-3.1258838
57	0xbf868b00	-1.051117
58	0xc077b448	-3.8703785
59	0xc07ea1d4	-3.9786272
60	0xc0d4554b	-6.6354117
61	0xbed3466b	-0.41264662
62	0xc00b9ebf	-2.181564
63	0xc0dcc2f0	-6.898796
64	0xc0aa14bb	-5.3150306
65	0xc0426dc4	-3.0379496
66	0xc02306f2	-2.547299
67	0xc05f2710	-3.4867592
68	0xc053acc2	-3.3074193
69	0xbfe2abef	-1.770872
70	0xbec0a019	-0.37622145
71	0xc0144545	-2.3167279
72	0xbf348b29	-0.7052484
73	0xbfb4e693	-1.4132866
74	0xbf900489	-1.1251384
75	0xbfb10686	-1.3830116
76	0xbfca68de	-1.5813253
77	0x3de7cc36	0.11318247
78	0xbfb55279	-1.4165794
79	0xc04ec028	-3.2304783
80	0xbff324b7	-1.899558
81	0xbf2f27ec	-0.6842029
82	0x3ea17efe	0.315422
83	0x3fa67ca3	1.3006786
84	0xbf9f2099	-1.2431823
85	0xbfb8606e	-1.4404428
86	0x3fa7c484	1.3106847
87	0x3e3be094	0.18347389
88	0xc00b4cb9	-2.1765578
89	0xc0174755	-2.3637288
90	0xc026ffb4	-2.6093569
91	0xc0b223f7	-5.5668902
92	0xc088aa0a	-4.2707567
93	0xc055e2ff	-3.3419797
94	0xbfccbdca	-1.5995419
95	0xc07099ed	-3.759395
96	0xbf658701	-0.89659125
97	0xbf8e6c82	-1.1126864
98	0xc006a6ea	-2.1039376
99	0x3dfa231b	0.12213727
100	0xc027a87c	-2.6196585
101	0x3e7ba105	0.24573143
102	0xbf7723b0	-0.9653883
103	0x3f087da6	0.53316724
104	0x3dea9fb8	0.11456245
105	0x3fbb0811	1.4611837
106	0x3f360029	0.71093994
107	0x3f4ab10e	0.79176414
108	0xbf3ce53c	-0.73787284
109	0x3ad69472	0.0016371144
110	0xbfbf0ed1	-1.4926397
111	0xc04e8a5e	-3.2271953
112	0x3e9ae2a1	0.3025103
113	0x3e418b9a	0.1890091
114	0xc00e0936	-2.2193122
115	0xbfc4cc17	-1.5374783
116	0xbfb1d624	-1.3893476
117	0xbe6e1c3b	-0.23252957
118	0xbfa567c8	-1.2922297
119	0xc04606dd	-3.094169
120	0xbe1748c8	-0.14773858
121	0xbf86b05c	-1.0522571
122	0xbf231357	-0.63701385
123	0xbebcf52b	-0.36905798
124	0xbf146db1	-0.57979876
125	0xbfc28e72	-1.5199721
126	0xc005f110	-2.0928383
127	0xbf7ceb7b	-0.98796815
128	0xbe8b59b1	-0.27216867
129	0xc014363d	-2.3158104
130	0xbf4be86a	-0.7965151
131	0xbf3aea4e	-0.7301377
132	0xbfb61202	-1.4224246
133	0xbf4f73e2	-0.810362
134	0xbee3c381	-0.44485095
135	0xbfc507e0	-1.5393028
136	0xbf2739c6	-0.6532253
137	0xbfc99534	-1.5748658
138	0xbf0002ec	-0.5000446
139	0xbf9e5549	-1.2369777
140	0xbec9cfe4	-0.3941642
141	0xbf840bbe	-1.0316083
142	0xbfe157ce	-1.7604921
143	0xbfc2d154	-1.5220132
144	0xbf58c521	-0.84675795
145	0xbf04914d	-0.5178421
146	0xbfc65270	-1.5493908
147	0xbfedbbbf	-1.857292
148	0xbed0b6ba	-0.4076441
149	0xbe070699	-0.1318611
150	0xbed2f345	-0.41201225
151	0xc05d42bf	-3.4571989
152	0xbfa55ac4	-1.2918324
153	0xbfcccbcf	-1.5999697
154	0xc044ca4b	-3.074847
155	0xbf7db60b	-0.991059
156	0xbe26c1d6	-0.1628488
157	0xc0007620	-2.0072098
158	0x3e32a376	0.17445168
159	0xc0934504	-4.6021748
160	0xc08438eb	-4.131948
161	0xbfbce9ba	-1.4758828
162	0xc04decce	-3.2175784
163	0xbd598fca	-0.053115644
164	0x3f324fdc	0.69653106
165	0x3f06e5e6	0.5269455
166	0xc0014575	-2.0198643
167	0xbfca845c	-1.5821643
168	0xc024f818	-2.5776424
169	0xc0219b15	-2.5250905
170	0xbe245682	-0.16048625
171	0xbed30b5f	-0.41219613
172	0xc085560c	-4.166754
173	0xbfb0e6c2	-1.3820422
174	0xc0032440	-2.0490875
175	0xbfcbdc56	-1.5926616
176	0xc05ec94c	-3.4810362
